saved_model/weights.pt (torch_old, 1293 bytes, 4 tensors)

layer1.weight f8 [5, 10]
0	0xbfef75a9bbe3d728	-0.9831131620146367
1	0x3fe1c2a8d928792e	0.555012153756058
2	0x3fd901609d2911e2	0.3907090697068992
3	0x3feeafbc4faf8c78	0.9589520984994939
4	0xbfd3aedefd052c7e	-0.3075482817554941
5	0x3fde571d2f7d0911	0.47406701695958114
6	0x3feb32a32a31c09e	0.8499313186748798
7	0xbfd5b252ccf9a738	-0.3390089990340246
8	0xbfc19f8964407a08	-0.1376811732779546
9	0x3febca22710e8fcf	0.8684246261732315
10	0xbfde2115365bd5fc	-0.47076921757192713
11	0x3fdbc5ae88954929	0.43394053781698233
12	0x3fe91b8af332348f	0.784612154953395
13	0xbfe4f25c9dd60792	-0.6545851786361132
14	0xbfdaf05440215893	-0.4209185243866013
15	0x3fbadd0772ea7f6f	0.1049351363712938
16	0x3fd7c547ccd35957	0.37141604425905456
17	0xbfea44aaf1b5e147	-0.8208822937877266
18	0xbfc974366d2e3bb6	-0.19885902720531384
19	0xbfeb36e43fb7a273	-0.850450634429832
20	0x3fe9a4b99beb8049	0.8013580365477618
21	0xbfbaf2c0341a93fe	-0.10526658317628798
22	0xbfe4c221fcf430c5	-0.6486978474145181
23	0x3fb9e05122fd1e4c	0.10107905487267849
24	0xbf922b720578216f	-0.017743856033150814
25	0x3fd22ea1495df108	0.2840960709070406
26	0xbfdf4800ceae9cb2	-0.48876972373768546
27	0xbfa8b3b000960c26	-0.04824590689806767
28	0x3fe61b459058ad46	0.6908290690675265
29	0x3fd0bfced84751a0	0.2617070304961775
30	0x3fd17fa7300516d2	0.27341632546845773
31	0x3fe7413114125d94	0.7267079727197818
32	0x3fe254dc4f561f51	0.5728589582003939
33	0x3fef82941216bf5a	0.9846897462175364
34	0xbfa96655a98a1f18	-0.04960887617659021
35	0x3fbe0287f9951978	0.11722612231560514
36	0xbfe019b379ebf176	-0.5031373387605942
37	0x3feba35d2efc227b	0.8636918943094111
38	0xbfea4c18e9b34b15	-0.821789223142647
39	0xbfd8636e664486c0	-0.38106880175665125
40	0xbfe6354124d045d7	-0.6940007895483927
41	0x3fddd389eba16318	0.46603630076201474
42	0x3fc07ef91985952e	0.1288749098413659
43	0xbfefb2ce0d06e5cb	-0.9905767683441636
44	0x3fc9ac86ab187158	0.20057757715484104
45	0xbfb4b8073a56d96c	-0.08093304800317974
46	0x3fda5de32fa8aadd	0.4119804349344756
47	0xbfeee2952894a567	-0.965159014948921
48	0x3fe2c9088c12f6b5	0.5870402084180656
49	0x3fe00b1d9a1457a2	0.5013568887104507

layer1.bias f8 [5]
0	0xbf31871f92f0e20f	-0.00026745339249914594
1	0x3f27d7497571e14d	0.00018189212525832957
2	0x3f3b9489f2e659ad	0.00042084091082852487
3	0xbf40ff497b429ee4	-0.0005187138363184876
4	0xbf2f161f7921f67c	-0.0002371705455210155

layer2.weight f8 [1, 5]
0	0xbfb202bc258fc69c	-0.07035423199683993
1	0xbfc8353e6b1c8288	-0.18912487249419407
2	0xbfc292178f622f5f	-0.1450833749880713
3	0x3fca5c9b63eb40bd	0.20595114115577032
4	0x3f8ad64523059fbc	0.0131040002167565

layer2.bias f8 [1]
0	0xbf696c460fdf0ad3	-0.003103386726224991
