saved_model/weights1.pt (torch_old, 1293 bytes, 4 tensors)

hidden.weight f8 [5, 10]
00000000: f89b 0eaf 7b3e e43f 3fe5 f974 6678 d23f
00000010: 19aa 70f1 6056 e93f 7964 bb85 7e6b e43f
00000020: 90eb 50ed f3ef e93f 518e 6e87 502b ec3f
00000030: 0aa6 cbbc b842 eb3f 9a3c 6536 d849 ebbf
00000040: ad0f 3e85 3061 c7bf eaac e6de 7560 cebf
00000050: 0156 a97a 3867 d63f 8d65 e8db 913d b63f
00000060: a7aa ffe4 7764 d8bf 332d 5610 d3e2 a8bf
00000070: 085c 7234 5385 e1bf 5b38 c7a2 cae0 d8bf
00000080: a9cd 3b74 8267 e63f 255f c0fa 9fc0 e9bf
00000090: 7d4e 0742 151c dcbf 903b 76de 5bc6 dfbf
000000a0: 0403 1d25 4795 cd3f 244a 7085 2f05 be3f
000000b0: a761 9b56 c4d9 de3f d47b ebf4 d7a8 dc3f
000000c0: 9199 8afc ada9 adbf 157e 1620 ac17 dc3f
000000d0: 5f56 38cc 41ea e1bf 5000 11e4 b6de e13f
000000e0: e9b2 2793 8ce6 e23f 1d95 4602 6fe1 e0bf
000000f0: 1dfa b652 3d4b ef3f 2e66 4e98 11da e9bf
00000100: 6cd4 1ab4 6ca0 e0bf e733 f52c 461b de3f
00000110: fedf 697f 571f dabf 6676 a183 49c2 e0bf
00000120: 2111 02a4 3ab2 da3f 4f78 f618 41ca ce3f
00000130: f3b6 6493 1b10 e93f 2e33 197f 8719 c93f
00000140: b85a 591b 8da8 de3f d4ac 0998 1d45 ec3f
00000150: 583f 40de e8cf edbf 2d46 eadf 7b69 d63f
00000160: 8713 ef56 b2a3 bc3f a69d 34ec 3e66 d13f
00000170: 112c fc16 d2ef e3bf b374 04d6 d645 80bf
00000180: fc38 39d0 441d f0bf e953 c14f 412e e53f
0.6326273364146564 0.2885986463876015 0.7917942729594102 0.6381218540146981 0.8105411181526154 0.8802874226716516 0.8518947303211359 -0.852764230958104
-0.18265348916986338 -0.23731873878327941 0.3500500867715744 0.08687698000757944 -0.3811321007075698 -0.048605533355920015 -0.5475250267362535 -0.38872018715199425
0.7001354475200304 -0.8047637841691296 -0.4392140526590323 -0.49648186421193774 0.23111810028242286 0.11726662643221936 0.48204143960676976 0.44780539434389977
-0.057935177877243345 0.4389448464735051 -0.5598458279298021 0.5584368185445872 0.5906432031748327 -0.5275187534759059 0.9779345145723856 -0.807869718049181
-0.5195830838844251 0.4704146803895228 -0.4081629509232697 -0.5237166949188576 0.4171282388345095 0.24054731100926793 0.7832162741449039 0.19609159189203623
0.47903754874043214 0.8834369630325463 -0.9316295948828879 0.35018822542869793 0.11187281248483148 0.2718655878729471 -0.6230249833037097 -0.007945707708638094
-1.007145703671596 0.6618963773458947

hidden.bias f8 [5]
00000000: 2ef2 2db5 b8d1 fd3e 644b b8d0 a2e9 353f
00000010: 5a5b 9311 c126 47bf 5241 dc34 45fb 303f
00000020: 8399 7f9b 5fc3 2dbf
2.8437828699422688e-05 0.0003343603609390815 -0.0007065241544762333 0.00025911750422926317 -0.00022707502443992605

output.weight f8 [1, 5]
00000000: 9bb4 adbc eff7 893f a637 34bb cded a23f
00000010: b934 c5a3 0658 c63f 85df 954c 4b0a 90bf
00000020: 9eb9 e854 79bb bb3f
0.012679932542335506 0.03697054777340662 0.17456133839224267 -0.01566426901760522 0.1083293754861416

output.bias f8 [1]
00000000: 500b f81b 8bb1 433f
0.0006009988064195979
